mnist_classifier/weights/lenet_epoch=12_test_acc=0.991.pth (torch_old, 248652 bytes, 10 tensors)

convnet.c1.weight f4 [6, 1, 5, 5]
0	0xbe072664	-0.13198239
1	0x3e1af6f6	0.1513327
2	0x3ea27aca	0.31734306
3	0xbdb834dd	-0.08994458
4	0xbe97c211	-0.29640248
5	0xbd74509a	-0.05964718
6	0xbcac8b2a	-0.021062452
7	0x3eaa0c43	0.3321248
8	0x3ea0cb6c	0.314052
9	0xbe6c6ff5	-0.23089583
10	0xbeb0966a	-0.34489757
11	0xbd119b57	-0.035548534
12	0x3eaf835d	0.3427991
13	0x3e54663d	0.20742126
14	0x3d3073fd	0.043079365
15	0xbe964925	-0.2935268
16	0xbe24c29f	-0.16089867
17	0x3d817e5f	0.063229315
18	0x3eb4a60a	0.35282928
19	0xbd896600	-0.06708908
20	0xbbc4eed3	-0.0060099154
21	0xbdd75152	-0.105135575
22	0xbc7f583b	-0.015585001
23	0x3e6b829a	0.2299904
24	0x3e88caaa	0.2671712
25	0xbebf9070	-0.37414885
26	0xbe7092e9	-0.23493542
27	0xbc4a5358	-0.012348972
28	0x3d5496c1	0.051901583
29	0x3d82e5ad	0.063914634
30	0xbef70133	-0.48243102
31	0xbe67cde1	-0.2263713
32	0x3d3e0dcd	0.04639988
33	0x3e92e7a9	0.28692368
34	0x3ecca43c	0.3996905
35	0xbeb6f350	-0.35732508
36	0xbbbf67e8	-0.005841244
37	0x3dd01552	0.101603165
38	0x3eafea0a	0.34358245
39	0x3d74248d	0.05960517
40	0x3d773886	0.06035664
41	0xbcd5a290	-0.026078492
42	0x3eb91cda	0.36154824
43	0x3e33be8f	0.17553161
44	0x3e339d26	0.17540416
45	0x3e0650fe	0.13116834
46	0x3e91b3d9	0.28457525
47	0x3d2b1e3f	0.04177689
48	0xbdb04b74	-0.086081415
49	0x3da029af	0.078204505
50	0x3e58bc51	0.21165587
51	0x3e8d7a1b	0.27632222
52	0x3e10bc61	0.14134361
53	0x3ecbe7ad	0.39825192
54	0x3ea55b16	0.32296056
55	0x3e19482a	0.14968935
56	0x3e176171	0.14783265
57	0x3ea3e4ab	0.32010397
58	0x3dbee2e7	0.09320622
59	0x3ea2e9d2	0.31819016
60	0xbe6435bc	-0.22286123
61	0x3d385076	0.04499861
62	0x3d1db4fd	0.038502682
63	0x38c0c620	9.192177e-05
64	0xbd942ab6	-0.07234709
65	0xbf08d87e	-0.5345534
66	0xbea78f8e	-0.3272671
67	0xbeab221d	-0.33424464
68	0xbe18a1ad	-0.14905424
69	0x3d32bd6c	0.043637678
70	0xbe510d8e	-0.20415327
71	0xbeeea63b	-0.466112
72	0xbf20df1b	-0.6284043
73	0xbeb9df13	-0.36303005
74	0xbe7a245f	-0.24427937
75	0x3d51353d	0.051076163
76	0xbe30f988	-0.17282689
77	0xbecf2e27	-0.404649
78	0xbefb513b	-0.4908541
79	0xbe52ca14	-0.20584899
80	0x3e8c57b1	0.27410653
81	0xbd9cd2a9	-0.07657368
82	0xbea8b1a2	-0.32948023
83	0xbb833586	-0.004004183
84	0xbe5a91c5	-0.21344669
85	0x3e9a7b45	0.30172172
86	0x3e91cdd0	0.28477335
87	0x3e9d01d8	0.3066547
88	0x3d05675c	0.032569274
89	0x3e836509	0.2566302
90	0x3e5b48f1	0.21414544
91	0x3ea093a7	0.3136265
92	0x3d7be2dc	0.061495647
93	0x3e779d9f	0.24181221
94	0x3e666d6f	0.22502683
95	0xbe9ba8cd	-0.30402222
96	0x3d333acc	0.043757245
97	0x3ddd783c	0.108139485
98	0x3c14f77f	0.009092211
99	0xbd652904	-0.05594732
100	0x3dccba9e	0.09996532
101	0xbea13d7e	-0.31492227
102	0xbe8a8456	-0.2705409
103	0xbea8073d	-0.32818022
104	0xbe544393	-0.20728903
105	0xbcede9e5	-0.029042194
106	0xbe78a977	-0.24283396
107	0xbdd95d69	-0.1061352
108	0xbd752bcd	-0.059856225
109	0x3d0db1d7	0.03459343
110	0x3ea39cf6	0.3195569
111	0xbe0bf80a	-0.13668838
112	0xbe7a56c2	-0.24447158
113	0x3a429fb5	0.0007424311
114	0xbd946245	-0.07245306
115	0x3ec0e65f	0.3767576
116	0x3ea365bb	0.31913552
117	0x3e52afe5	0.20574911
118	0x3e6aeb98	0.22941434
119	0x3d2f4e6e	0.042799406
120	0x3dcfd835	0.1014866
121	0x3e2530a0	0.1613183
122	0x3e484f5a	0.1956152
123	0x3e2cc48c	0.16871852
124	0x3e7a6520	0.24452639
125	0xbd688f7f	-0.056777474
126	0x3e29f81a	0.1659855
127	0x3dcd8f26	0.10037069
128	0xbdfb6085	-0.12274269
129	0x3d96d558	0.07364911
130	0x3e95da0c	0.2926792
131	0x3eb5eb73	0.35531196
132	0x3df0593f	0.11735772
133	0xbd27b93b	-0.040948134
134	0xbe10989b	-0.14120714
135	0x3e9ab820	0.302186
136	0xbd84ce68	-0.06484681
137	0xbe3b16ed	-0.18270464
138	0x3e096827	0.13418637
139	0xbb4acd28	-0.0030945037
140	0x3e18b656	0.14913306
141	0xbcf791cd	-0.03022089
142	0xbe5d827a	-0.21631804
143	0xbd4f50bf	-0.050614115
144	0x3e49903e	0.1968393
145	0xbcfea917	-0.031086488
146	0xbe14b794	-0.14523154
147	0xbe651c58	-0.22374094
148	0xbe97c215	-0.2964026
149	0x3e041d0a	0.12901703

convnet.c1.bias f4 [6]
0	0xbd28a918	-0.041176885
1	0xbdc596e9	-0.096479245
2	0x3e67634e	0.22596475
3	0x3b3ff97d	0.0029292994
4	0x3c0974f8	0.008389704
5	0xbce3b79f	-0.027797518

convnet.c3.weight f4 [16, 6, 5, 5]
0	0xbcbebd24	-0.023283549
1	0x3d41062e	0.047125034
2	0x3c7a61fd	0.015282151
3	0x3ddc1d73	0.107478045
4	0x3d309896	0.043114267
5	0x3bb5fad5	0.005553583
6	0xbde06cf3	-0.109582804
7	0x3d53dbf9	0.051723454
8	0xbd79fcbb	-0.06103204
9	0x3d59d968	0.05318585
10	0x3d410261	0.04712141
11	0x3d3262e1	0.04355133
12	0xbd1402aa	-0.036135353
13	0x3d00bf61	0.031432513
14	0x3e00d867	0.12582551
15	0x3d0dcfd4	0.03462203
16	0x3d232324	0.039828435
17	0xbd5ca406	-0.053867362
18	0xbe110db5	-0.14165385
19	0x3dd0747a	0.10178466
20	0x3d0cfd25	0.034421105
21	0x3d2079b0	0.03917855
22	0x3dc64740	0.096815586
23	0xbc6730fe	-0.014110802
24	0xbe0f8d6d	-0.14018793
25	0x3dfb81cc	0.12280616
26	0xbdee03d5	-0.11621825
27	0xbdfafd75	-0.12255374
28	0x3d69ed43	0.057111036
29	0x3e4ca686	0.19985399
30	0xbe260e13	-0.16216306
31	0xbe19b582	-0.15010646
32	0x3ceb1c2a	0.028699953
33	0x3e2f5f04	0.1712609
34	0x3e18e5cd	0.14931412
35	0xbe628fb9	-0.22125138
36	0x3dd2f247	0.10300117
37	0x3e06b93a	0.13156596
38	0x3e0a8b58	0.13529718
39	0xbe022d51	-0.127126
40	0xbcdf1a55	-0.027234236
41	0x3e18affd	0.14910884
42	0x3dd08929	0.10182411
43	0xbe1ba991	-0.15201403
44	0x3cbd4577	0.023104412
45	0x3d2c368d	0.04204421
46	0x3a49c918	0.0007697507
47	0xbe13b38a	-0.14423957
48	0xbe6e036f	-0.23243497
49	0xbd515d0a	-0.05111412
50	0x3ca16530	0.01970157
51	0x3df443cc	0.11926994
52	0xbc89203e	-0.016739007
53	0xbe9caf41	-0.30602458
54	0xbea12fdc	-0.31481826
55	0xbd6647aa	-0.056220688
56	0xbdcffb39	-0.10155339
57	0xbe29b504	-0.16572958
58	0xbec08817	-0.37603828
59	0xbe1df19b	-0.15424196
60	0xbe204a5f	-0.1565337
61	0xbe87cc8a	-0.26523238
62	0xbeb8f01f	-0.36120698
63	0xbe525dc4	-0.20543581
64	0xbdd54855	-0.10414187
65	0x3d224a8b	0.03962187
66	0xbe4e3db6	-0.20140728
67	0xbea137d1	-0.31487897
68	0xbdd92e8d	-0.10604582
69	0x3d6dda40	0.058069468
70	0xbd6f8663	-0.05847777
71	0xbd41ab17	-0.047282305
72	0xbd8a2920	-0.06746125
73	0x3d1138c8	0.03545454
74	0x3e243130	0.16034389
75	0xbcc2f4b3	-0.023798322
76	0xbe36cb4a	-0.17850986
77	0xbd8754e6	-0.0660799
78	0x3d6d84de	0.05798804
79	0x3e41476b	0.188749
80	0xbbe1e45a	-0.0068936767
81	0x3d8ae629	0.06782181
82	0x3da99982	0.082812324
83	0x3d9c14b4	0.07621136
84	0x3d155010	0.036453307
85	0x3e34c577	0.17653452
86	0x3ddf3039	0.108978696
87	0x3c562d8e	0.0130723845
88	0xbd23c933	-0.0399868
89	0xbd14e310	-0.036349356
90	0x3deb82c5	0.11499552
91	0x3d81cbd0	0.06337702
92	0xbe1fbc44	-0.15599161
93	0xbca11a3d	-0.019665832
94	0x3d591240	0.05299592
95	0xbc35fdfb	-0.011107917
96	0xbe444bae	-0.19169495
97	0x3d62f782	0.055411823
98	0x3dd9b5cf	0.1063038
99	0x3da684cd	0.081307985
100	0xbc84e32b	-0.016221603
101	0xbe5707c9	-0.20999064
102	0xbd015540	-0.03157544
103	0x3db936db	0.09043666
104	0x3dd9d478	0.10636228
105	0xbd41d1de	-0.047319286
106	0x3d1f0728	0.038825184
107	0xbd027d66	-0.03185787
108	0x3b82ad05	0.0039879107
109	0x3b9625b0	0.0045821294
110	0x3d131322	0.03590692
111	0x3e1a9be3	0.15098529
112	0xbd3e0f37	-0.04640123
113	0xbd064247	-0.03277805
114	0xba957b70	-0.0011404585
115	0x3d3a7911	0.045525614
116	0xbb3aa9e9	-0.0028482622
117	0xbe050d27	-0.12993298
118	0xbe2bf234	-0.16791612
119	0x3d4ccab6	0.049998008
120	0xbd17d126	-0.037064694
121	0xbe3c1e0e	-0.1837084
122	0xbe106019	-0.14099158
123	0x3dc0b17d	0.09408853
124	0x3d836114	0.064150006
125	0xbb8a47c6	-0.004219982
126	0x3b159b15	0.0022828032
127	0xbb8ee5e4	-0.004360901
128	0xbc8a1ed1	-0.016860398
129	0x3b12f63c	0.00224246
130	0x3d58b70b	0.05290894
131	0xbd864d98	-0.065577686
132	0xbe48aabf	-0.19596384
133	0xbbe2893f	-0.0069133337
134	0x3d043133	0.032273483
135	0x3cebabf2	0.028768513
136	0xbd93e815	-0.072220005
137	0xbd0714d8	-0.032978863
138	0x3e455b6c	0.19273156
139	0x3dddf8c6	0.108384654
140	0x3db3583c	0.08757064
141	0xbdbb06d1	-0.091321595
142	0x3e017a2b	0.1264426
143	0x3d0f14df	0.034932014
144	0x3d51c298	0.05121097
145	0xbde9c082	-0.11413671
146	0x3d5cc222	0.053896077
147	0x3d95208a	0.07281597
148	0xbd19b685	-0.03752758
149	0xbd9c6b0d	-0.07637606
150	0xbe423b49	-0.18967928
151	0xbc53b49f	-0.012921481
152	0x3de5975a	0.11210509
153	0xbd7226cd	-0.059119035
154	0xbe2021b4	-0.15637857
155	0xbd6c1af6	-0.0576429
156	0x3dc90a3e	0.09816407
157	0x3b2ea950	0.002665121
158	0xbdec2d2b	-0.115320526
159	0x3d543d6c	0.05181639
160	0xbde18b7a	-0.11012931
161	0x3d56466a	0.052313246
162	0x3d958bc9	0.073020525
163	0xbe35a953	-0.17740373
164	0xbe720ace	-0.23636934
165	0xbe5de387	-0.21668826
166	0x3da682c2	0.08130409
167	0x3d5597e2	0.0521468
168	0xbe301e43	-0.17199044
169	0xbe38a843	-0.18032937
170	0xbe5ba01b	-0.21447794
171	0x3dc90886	0.09816079
172	0x3da23bf7	0.07921594
173	0xbe794d05	-0.24345787
174	0xbe629ee8	-0.2213093
175	0xbda45931	-0.080248244
176	0x3e51a50e	0.2047312
177	0x3e6c67ae	0.23086426
178	0xbd00f578	-0.031484097
179	0xbe32b97e	-0.17453572
180	0x3ca84908	0.020542637
181	0x3e65df79	0.2244853
182	0x3e31fb05	0.17380913
183	0xbe440c62	-0.19145349
184	0xbd4d6bdb	-0.050151687
185	0xbda28751	-0.07935966
186	0x3d04edb4	0.032453254
187	0xbd953be2	-0.07286812
188	0xbe3f15a1	-0.18660595
189	0x3c1ee1f7	0.009697429
190	0x3bba98ba	0.005694476
191	0x3dc46aec	0.09590706
192	0xbd807b7f	-0.06273555
193	0xbe911930	-0.2833953
194	0xbe986cb2	-0.29770428
195	0xbd01a2ae	-0.031649284
196	0xbcb1f31e	-0.021722373
197	0xbe23ba85	-0.1598912
198	0xbea6cd60	-0.32578564
199	0xbea1d645	-0.31608787
200	0xbe27bfc5	-0.16381748
201	0xbec92cec	-0.39292085
202	0xbec9b983	-0.39399347
203	0xbec20be6	-0.37899703
204	0xbd25502e	-0.04035967
205	0x3da12917	0.078691654
206	0xbd8809f0	-0.066425204
207	0xbe185cf2	-0.14879206
208	0x3d19d56b	0.037557047
209	0x3e14619d	0.14490362
210	0x3eb4c6c9	0.3530791
211	0x3e04496f	0.12918638
212	0x3d89ecb9	0.067346044
213	0xbcca74a2	-0.024713818
214	0x3e148b1a	0.14506188
215	0x3d0b5550	0.034016907
216	0x3e4a8103	0.19775777
217	0x3e3f8d1a	0.1870617
218	0x3e53fc4e	0.20701715
219	0x3e45bb31	0.19309689
220	0xbda9236d	-0.0825871
221	0x3dab268a	0.0835696
222	0x3e15ca37	0.1462792
223	0x3e089f93	0.13342123
224	0xbbbee537	-0.0058256644
225	0xbcf14359	-0.02945106
226	0xbd5c0596	-0.053716265
227	0xbc0aae9d	-0.008464483
228	0x3e1349b1	0.1438358
229	0x3d197938	0.03746912
230	0x3e1560d6	0.14587721
231	0xbc9b292f	-0.018940536
232	0xbcc887b6	-0.024478775
233	0x3da8747b	0.08225342
234	0x3d4e5ef5	0.050383527
235	0xbd9693b9	-0.073523946
236	0xbe44d8da	-0.19223347
237	0xbc4e1816	-0.012578985
238	0x3d9c156d	0.07621274
239	0xbd6209eb	-0.05518524
240	0xbe6936d5	-0.22774823
241	0xbec79f8e	-0.38988918
242	0x3c8f6aa8	0.017506912
243	0x3df0e7b7	0.11762946
244	0xbe385093	-0.17999487
245	0xbdb36377	-0.08759206
246	0xbe6c942a	-0.23103395
247	0xbbd44676	-0.006478126
248	0xbd805fcb	-0.06268271
249	0xbe05180e	-0.12997457
250	0x3cb4e07e	0.022079702
251	0x3d76ff3f	0.060302015
252	0x3d779290	0.060442507
253	0xbbc6df61	-0.0060691093
254	0x3dabc630	0.08387411
255	0x3da96018	0.082702816

convnet.c3.bias f4 [16]
0	0x3ce70b15	0.028203527
1	0x3dc958b7	0.09831374
2	0xbd42a52b	-0.047520798
3	0xbd78d9b5	-0.060754497
4	0x3dd23ce5	0.10265521
5	0xbe1fbab8	-0.15598571
6	0xbcb06537	-0.021532638
7	0x3c2bc0eb	0.010483007
8	0xbe01a80c	-0.12661761
9	0x3a611bde	0.00085872214
10	0xbdf2a9ab	-0.11848768
11	0x3df373d1	0.118873246
12	0xbd85748d	-0.06516371
13	0xbd6c836b	-0.057742517
14	0xbd9508e5	-0.07277087
15	0xbd82d8dc	-0.06389019

convnet.c5.weight f4 [120, 16, 5, 5]
0	0x3c703cb1	0.014662907
1	0xbd118f4c	-0.03553705
2	0x3caebdd0	0.021330744
3	0xbd65d686	-0.05611279
4	0xbd69110b	-0.05690102
5	0x3c1fbba3	0.009749326
6	0xbd6b09c8	-0.057382375
7	0x3b03e4d6	0.002012541
8	0xbd5a403c	-0.053283915
9	0x3c98bef4	0.018645741
10	0xbd71f9e7	-0.059076216
11	0x3c50096b	0.012697558
12	0xbd59181c	-0.053001508
13	0xbac9df71	-0.0015401674
14	0xbca5e8d8	-0.02025263
15	0xbabee6b9	-0.001456461
16	0x3ce34bd5	0.02774612
17	0x3cb93782	0.022609476
18	0xbd7503af	-0.059817966
19	0xbcae358f	-0.021265773
20	0x3d0ff2e8	0.035143763
21	0x3c280224	0.010254417
22	0xbc56c087	-0.0131074255
23	0xbd5b74dc	-0.053578243
24	0xbc0aa8fa	-0.008463139
25	0x3ccfb785	0.025356064
26	0xbc4b136c	-0.012394767
27	0x3a8a978b	0.0010573728
28	0xbcffaa2d	-0.031209076
29	0x3d48a33a	0.04898379
30	0x3ce1cc3b	0.027563205
31	0xbb4a15ae	-0.0030835676
32	0x3b53a383	0.0032293506
33	0x3d1999ea	0.0375003
34	0x3c7be671	0.015374766
35	0xbd6aaaba	-0.057291724
36	0xbcfae358	-0.030625984
37	0x3d2aa70d	0.04166322
38	0xbcf04d79	-0.029333817
39	0xbd78b6ec	-0.060721323
40	0x3d3b4e18	0.045728773
41	0xbcdf3acf	-0.027249722
42	0x3c14898c	0.009065997
43	0x3c03b75b	0.008039321
44	0x3c8773dc	0.016534738
45	0x3d389324	0.0450622
46	0xbd4b72b9	-0.049669955
47	0xbd2c3633	-0.042043876
48	0xbd6e2c3c	-0.058147654
49	0x3c9add55	0.018904367
50	0xbd0cd039	-0.034378264
51	0x3cd6937d	0.026193375
52	0xbd08a1be	-0.033357374
53	0x3b8d637b	0.0043148375
54	0xbc1c4627	-0.00953821
55	0xbd5fa2e6	-0.05459871
56	0xbb6195e6	-0.0034421622
57	0x3ccccfb6	0.025001388
58	0x3d3a531c	0.045489416
59	0x3d234bff	0.039867397
60	0xbd43b233	-0.047777366
61	0xbd1d080d	-0.038337756
62	0xbd610b4d	-0.054942418
63	0xbc338481	-0.010956884
64	0xbcd53cb1	-0.026029916
65	0xbbb0f8eb	-0.005400767
66	0xbd24e8b0	-0.04026097
67	0x3d632037	0.055450644
68	0xbc9becf2	-0.019033883
69	0xbbeeb77d	-0.007285057
70	0x3c6320fb	0.013862844
71	0x3d1b734d	0.037951756
72	0x3d19466c	0.037420675
73	0xbafcf77c	-0.001929983
74	0xbd46e4c3	-0.048558008
75	0x3d1186b4	0.035528854
76	0xbd29b82d	-0.04143541
77	0x3ceb6c61	0.028738203
78	0x3cfa07af	0.030521242
79	0x3d1636b7	0.036673274
80	0x3c7a95e4	0.015294526
81	0x3d41c986	0.04731133
82	0xbb2d3f77	-0.0026435533
83	0xbd45fc25	-0.048336167
84	0xbd0ea94e	-0.03482943
85	0x3d484399	0.04889259
86	0xbd1f344e	-0.03886824
87	0xbccb02c0	-0.024781585
88	0x3d3515eb	0.044210356
89	0xbd70b757	-0.058768597
90	0x3b3b700f	0.0028600728
91	0x3cd61a4a	0.026135582
92	0x3c6e9726	0.014562404
93	0xbc5a000c	-0.013305675
94	0xbc07fe52	-0.008300381
95	0x3b0a682c	0.002111922
96	0xbc7d11ce	-0.0154461395
97	0x3ceb998b	0.028759738
98	0xbd376f4c	-0.044783875
99	0xbd375ef0	-0.044768274
100	0xba5cb58d	-0.0008419387
101	0x3cd4c8bc	0.025974624
102	0xbcc480b7	-0.023987157
103	0x3cc67953	0.024227774
104	0x3cb7655e	0.022387203
105	0x3d3121df	0.043245193
106	0xbd109640	-0.03529954
107	0xbb19419f	-0.002338506
108	0xbcff830a	-0.031190414
109	0x3c4e4724	0.012590203
110	0x3c8243ec	0.015901528
111	0xbd3e2bd8	-0.04642853
112	0x3cb3b956	0.021938961
113	0x3ccd04ce	0.025026705
114	0x3c6cd108	0.014454134
115	0xbcf03680	-0.029322863
116	0xbc56a5ee	-0.013101084
117	0xbc9cdf96	-0.019149583
118	0x3bb79ad4	0.0056031737
119	0x3bbdd0fb	0.0057927347
120	0x3c840372	0.016114924
121	0x3d0601e8	0.03271666
122	0xbc05367d	-0.008130667
123	0xbc99fca6	-0.01879723
124	0xbd2d5166	-0.042313956
125	0xbc79f147	-0.015255279
126	0x3ca49498	0.020090386
127	0xbd10f81f	-0.035392877
128	0xbd3b08f8	-0.04566285
129	0xbd06331b	-0.03276358
130	0xbc561f8a	-0.013069043
131	0x3cd26314	0.02568201
132	0xbcfa4f57	-0.03055541
133	0xbcdb5418	-0.026773497
134	0xbcc8a8d6	-0.02449457
135	0x3d12f222	0.035875447
136	0xbcda3684	-0.026637323
137	0xbd45209f	-0.048126813
138	0x3cf8fa94	0.030392922
139	0xbd2282ee	-0.039675646
140	0xba1bdc2c	-0.0005945589
141	0xbb9cec7e	-0.0047889343
142	0xbabc9249	-0.0014386858
143	0xbce93e5a	-0.028472114
144	0xbc9a0ee9	-0.018805938
145	0xbd207043	-0.03916956
146	0x3be1590d	0.0068770708
147	0x3ab28f6c	0.0013623065
148	0xbd1e8480	-0.03870058
149	0xbd1ac93c	-0.03778957
150	0x3d037b8b	0.03210024
151	0x3d0d7734	0.03453751
152	0xbc7abc97	-0.015303752
153	0x3ca0159f	0.01954156
154	0x3ccf211c	0.025284342
155	0xbb9e01ca	-0.0048219906
156	0xbcf8a5d2	-0.030352507
157	0xbd1572ff	-0.036486622
158	0xbb6e680c	-0.0036377935
159	0x3c6e39e0	0.014540166
160	0xbcfeb5e7	-0.031092597
161	0x3cb3f542	0.021967534
162	0x3cfa6942	0.030567769
163	0xba132b2c	-0.0005614038
164	0xbbbeff7f	-0.0058287974
165	0xba78114a	-0.00094630255
166	0x3c98b846	0.018642556
167	0x3b02de78	0.0019969027
168	0x3d0b974f	0.034079846
169	0x3ce872a2	0.028374974
170	0xbd6f852c	-0.058476612
171	0x3c34cea6	0.011035597
172	0xbd68fb62	-0.056880362
173	0xbd41c3e6	-0.047305964
174	0xbd3be6b6	-0.04587432
175	0x3d0ec344	0.03485419
176	0xbb1d68e6	-0.0024018823
177	0x3c8d3084	0.017235048
178	0xbd3df2de	-0.046374194
179	0x3c3e4360	0.011612743
180	0xbd53951d	-0.051655877
181	0xbc6a1529	-0.014287272
182	0x3cdaa12d	0.026688183
183	0xbd0501b5	-0.03247233
184	0x3b8575f0	0.004072897
185	0xbce0f1a1	-0.027458968
186	0x3c5a2a77	0.0133157885
187	0x3c142f37	0.00904446
188	0xbd020d0f	-0.031750735
189	0xbd772fe4	-0.060348406
190	0x3c186254	0.009300787
191	0x3bf300a9	0.00741585
192	0xbc80d4b8	-0.015726432
193	0x3b2af554	0.0026086168
194	0x3b83042a	0.003998299
195	0xbd1b4128	-0.037903935
196	0xbcc7f8d7	-0.024410648
197	0x3d1678f9	0.036736462
198	0xbd2ed4db	-0.042683464
199	0xbc874501	-0.016512396
200	0xbd17d5a4	-0.037068978
201	0xbd5d39b6	-0.054010116
202	0x3aaca07e	0.0013170389
203	0xbb180194	-0.00231943
204	0xbd6068df	-0.054787513
205	0xbc81affa	-0.015830982
206	0xbca6bfd3	-0.02035514
207	0xbc9a8cbe	-0.01886594
208	0xbcd18ee5	-0.025580833
209	0x3c560807	0.013063437
210	0x3c12b234	0.00895362
211	0xbd1e50a9	-0.038651142
212	0xbca7cd8f	-0.02048376
213	0x3bd609df	0.0065319384
214	0xbcdf0161	-0.027222337
215	0x3cc15ba5	0.02360327
216	0x3b855d13	0.004069933
217	0xbd161038	-0.03663656
218	0xbca99064	-0.020698734
219	0xbcb78a97	-0.022404952
220	0x3ca21157	0.019783659
221	0xbd0a49e8	-0.03376189
222	0x3c93a2ab	0.018021902
223	0xbd16e2e6	-0.03683748
224	0xbc2ed19d	-0.010670093
225	0x3cc704e4	0.024294324
226	0x3c873ed7	0.016509457
227	0x3c48daa9	0.012259164
228	0x3ca863f7	0.02055548
229	0x3ac8893d	0.0015299689
230	0xbd76bc6c	-0.060238287
231	0x3a78ed78	0.0009495835
232	0xbcedae92	-0.029013906
233	0xbd13402d	-0.035949875
234	0xbd15a84e	-0.03653746
235	0xbc042ca5	-0.008067285
236	0xbc8a420a	-0.016877193
237	0xbc5fa6ca	-0.013650605
238	0xbd3c2127	-0.045930054
239	0xbc95f019	-0.018302964
240	0xbd494b97	-0.049144354
241	0x3c51e51c	0.012810972
242	0x3c407c47	0.01174838
243	0xbc8b40a6	-0.0169986
244	0xbd4356a2	-0.04769004
245	0xbd3a613c	-0.045502886
246	0xbd427d72	-0.047482915
247	0x3ce0bf80	0.027435064
248	0xbd1a0c63	-0.03760947
249	0xbce8edd4	-0.028433718
250	0x3c0adacc	0.008475017
251	0x3cd31115	0.025764981
252	0x3cbdf195	0.023186484
253	0x3d1bc653	0.038030934
254	0xbceded8a	-0.029043932
255	0xbd390210	-0.045167983

convnet.c5.bias f4 [120]
0	0xbcab60e6	-0.020920228
1	0x3d4b1480	0.049580097
2	0x3da0ff12	0.07861151
3	0xbb940318	-0.0045169704
4	0xbd166aa0	-0.03672278
5	0x3d60f889	0.05492452
6	0xbb2fd292	-0.002682839
7	0xbc4cf87e	-0.012510417
8	0x3ccdb360	0.025109947
9	0x3cc2e645	0.023791442
10	0xbd464137	-0.048402037
11	0x3d76f025	0.060287613
12	0x3c21f625	0.009885346
13	0x3d680383	0.056643974
14	0xbd686c38	-0.05674383
15	0x3a95c679	0.0011426947
16	0xbbca105c	-0.006166501
17	0xbd707f52	-0.058715172
18	0x3d16e17c	0.036836132
19	0xbd18d5f4	-0.037313417
20	0x3d2c8b67	0.042125132
21	0x3a99b154	0.0011725822
22	0xbd0e1833	-0.034691047
23	0x3cfbdef1	0.030745955
24	0xbcd4b58e	-0.025965478
25	0x3d0c853a	0.034306742
26	0x3c334919	0.010942721
27	0x3ca15076	0.019691687
28	0x3daf9879	0.08574004
29	0x3cab8520	0.020937502
30	0x3bdc5434	0.006723905
31	0x3d0bc44b	0.034122746
32	0x3d133e3f	0.035948034
33	0xbd83e6a5	-0.06440476
34	0x3ca20c1a	0.019781161
35	0x3d7a003d	0.061035383
36	0x3da3b069	0.07992632
37	0x3c3ec223	0.0116429655
38	0x3d844256	0.06457965
39	0x3db06199	0.08612365
40	0xbd38af5b	-0.045089107
41	0xbbf6df2d	-0.007533929
42	0xbd68e34b	-0.05685739
43	0xbd032f5e	-0.032027595
44	0x3dead190	0.11465752
45	0xbce7b164	-0.028282829
46	0xbd46cb83	-0.048533928
47	0xbc93f3ef	-0.018060653
48	0x3d4c38dd	0.049858917
49	0x3d3c792b	0.046013992
50	0xbda43c7d	-0.0801935
51	0x3cb2942b	0.021799168
52	0xbd434952	-0.047677346
53	0x3c934168	0.017975524
54	0x3dde3451	0.10849822
55	0x3ba11772	0.004916125
56	0x3d0ecbb7	0.034862246
57	0x3cd44719	0.025912808
58	0xbd90fb1a	-0.07079144
59	0xb9b8672b	-0.0003517208
60	0x3c787e24	0.015166793
61	0xbd80bb22	-0.06285693
62	0xbdd3f0a1	-0.10348631
63	0xbc6c93d8	-0.014439546
64	0x3d82b7ed	0.06382737
65	0x3c781ebf	0.015144049
66	0x3c5d5e40	0.0135112405
67	0xbd07d245	-0.033159513
68	0x3db96750	0.090529084
69	0xbbfa7313	-0.0076431124
70	0x3c2f4efb	0.010699983
71	0xbd7952f3	-0.060870122
72	0xbc9cf619	-0.019160317
73	0x3d5fa200	0.054597855
74	0x3c659056	0.014011463
75	0x3d84405c	0.06457588
76	0x3d1daad9	0.03849301
77	0x3d2a872e	0.041632824
78	0xbc59c39b	-0.013291265
79	0xbd4e6220	-0.050386548
80	0x3d828682	0.063733116
81	0xbd8788f1	-0.066179164
82	0xbccbfcbf	-0.024900792
83	0x3d2e2a5a	0.04252086
84	0x3d8abf41	0.0677476
85	0xbcf447f1	-0.02981946
86	0xbc04cef0	-0.008105978
87	0x3d7e1590	0.062032282
88	0x3b1e9f9f	0.0024204028
89	0x3d2c0e12	0.042005606
90	0xbd18e361	-0.03732622
91	0x3b9319b0	0.004489146
92	0xbb14ea10	-0.002272252
93	0xbc48ebd8	-0.012263261
94	0x3cfb7bc5	0.030698666
95	0x3d0cb326	0.034350537
96	0x3c10721c	0.008816268
97	0xbd04d9de	-0.032434337
98	0xbc3524e1	-0.011056156
99	0xbb8278b3	-0.0039816736
100	0x3b8fb4c2	0.0043855617
101	0xbda62b7b	-0.08113762
102	0x3db68650	0.08912337
103	0xbcfb6df6	-0.030692082
104	0xbca42704	-0.020038135
105	0xbcf876bd	-0.030330056
106	0x3d0ad831	0.033897582
107	0xbd1097f8	-0.03530118
108	0x3c0ab221	0.008465321
109	0x3c83d6a0	0.016093552
110	0xbd63e556	-0.055638634
111	0xbc88cef1	-0.01670024
112	0xbd126c6c	-0.03574793
113	0xbd754aca	-0.059885778
114	0x3d7f2a5f	0.062296268
115	0xbd800ac3	-0.06252053
116	0x3cd0aa10	0.025471717
117	0x3b94d7f1	0.004542344
118	0xbbb12c2c	-0.005406877
119	0xbd601005	-0.054702777

fc.f6.weight f4 [84, 120]
0	0xbd6f9df0	-0.05850023
1	0xbcb81509	-0.022470968
2	0x3d36f242	0.04466463
3	0x3db85376	0.09000294
4	0x3dcff21b	0.101536
5	0x3de7c44b	0.11316737
6	0x3ce43e84	0.027861841
7	0x3d3c465b	0.045965534
8	0x3b6ad9ae	0.0035835314
9	0xbe362caf	-0.17790483
10	0x3c12d302	0.008961441
11	0x3d8dbd9c	0.06920931
12	0xbd3be47f	-0.045872208
13	0x3df4bb1e	0.11949752
14	0xbd99ac0c	-0.075035185
15	0xbd5745f0	-0.052556932
16	0x3d951390	0.07279122
17	0xbd301c9e	-0.04299604
18	0x3d22c99e	0.03974306
19	0xbc92afa1	-0.017906012
20	0xbc546084	-0.012962464
21	0xbcab8232	-0.020936105
22	0x3cedbc43	0.029020434
23	0xbd75b499	-0.059986684
24	0x3d677696	0.056509577
25	0xbccf66a7	-0.025317503
26	0xbe59d9cb	-0.21274488
27	0xbd75ff86	-0.06005814
28	0x3e21f0fd	0.15814586
29	0x3e04ab1f	0.12955903
30	0xbd32357c	-0.043508038
31	0x3ddedbf7	0.10881799
32	0x3ab4576c	0.0013758964
33	0xbd953d52	-0.072870865
34	0x3d557c90	0.052120745
35	0x3dc46e30	0.09591329
36	0x3c7e6d18	0.01552894
37	0xbd711056	-0.05885347
38	0x3e8f5409	0.279938
39	0x3cc03412	0.023462329
40	0xbd18ba39	-0.03728697
41	0x3cc86f3b	0.024467101
42	0x3d225834	0.0396349
43	0x3aa57fe9	0.0012626621
44	0x3d3193d7	0.04335388
45	0xbe39eb85	-0.1815625
46	0xbd147830	-0.036247432
47	0x3d423a17	0.04741868
48	0x3caccaa4	0.02109272
49	0xbe2be841	-0.16787817
50	0x3c8b13a4	0.016977139
51	0xbdc66d0d	-0.096887685
52	0x3d87c8ca	0.06630094
53	0x3ce85a7b	0.028363457
54	0xbd73bc4c	-0.059505746
55	0x3d9bb212	0.076023236
56	0x3cb592a0	0.022164643
57	0xbc5aa889	-0.013345846
58	0xbe239b3c	-0.15977186
59	0xbdda156e	-0.10648619
60	0x3e2f2e5b	0.17107527
61	0xbd3a6b16	-0.04551228
62	0xbd191e27	-0.03738227
63	0x3dafb25f	0.085789435
64	0xbd754dbb	-0.059888583
65	0xbd824321	-0.0636046
66	0xbd9424e8	-0.07233602
67	0xbce9536c	-0.028482161
68	0x3df0a1ae	0.11749588
69	0x3cf7b0e2	0.030235711
70	0xbc91ffeb	-0.017822227
71	0xbcdb5be2	-0.026777212
72	0xbdab96c3	-0.08378365
73	0x3d57d710	0.052695334
74	0xbe5ac329	-0.2136351
75	0xbb12e666	-0.002241516
76	0xbd5705c7	-0.052495744
77	0x3dfe094f	0.12404119
78	0x3cfbf058	0.030754253
79	0x3d9ae4e0	0.07563186
80	0x3d37daef	0.044886526
81	0xbd98a2e9	-0.07452948
82	0xbe00c6e7	-0.12575875
83	0x3e61fab3	0.2206829
84	0xbd43a7d5	-0.04776748
85	0xbd95f8a3	-0.07322814
86	0x3cf527d9	0.029926227
87	0x3da231b5	0.07919637
88	0xbdae7f4c	-0.08520374
89	0x3d9ac496	0.07557027
90	0x3daade4f	0.08343183
91	0xbdd660dd	-0.10467694
92	0xbe76f02f	-0.2411506
93	0x3e2c5255	0.16828282
94	0x3d9e9284	0.077427894
95	0xbc2c7521	-0.010525973
96	0x3d20c93e	0.03925442
97	0xbd1d2454	-0.038364723
98	0xbd7140f3	-0.05889983
99	0xbdf62b3e	-0.120199665
100	0x3de2ceca	0.11074598
101	0xbe10dee0	-0.1414752
102	0x3d8368e0	0.06416488
103	0x3d8b6afb	0.06807514
104	0x3d0a497d	0.03376149
105	0x3d974f13	0.07388129
106	0x3defe1ee	0.117130145
107	0xbb51f519	-0.0032036959
108	0x3db3d82b	0.08781465
109	0xbdd0cb81	-0.10195065
110	0xbd892c7c	-0.06697938
111	0x3d3713bb	0.04469655
112	0xbd53cc7d	-0.051708687
113	0x3d655d86	0.055997394
114	0x3dd86891	0.105668195
115	0xbded72ff	-0.115941994
116	0x3ad53cda	0.0016268746
117	0x3c886095	0.016647616
118	0x3c80a14a	0.015701909
119	0x3c88b9f5	0.016690234
120	0xbdafe115	-0.08587853
121	0xbd097d5e	-0.033566825
122	0xbdc47e84	-0.095944434
123	0x3d449250	0.047991097
124	0xbca31be8	-0.019910768
125	0x3d6ec5f7	0.058294263
126	0xbd89e18c	-0.06732473
127	0xbd833fce	-0.06408654
128	0x3cae21b0	0.021256298
129	0xbd3932db	-0.045214515
130	0xbd03af9b	-0.032149892
131	0xbd7ed676	-0.062216245
132	0x3d8211b8	0.06351036
133	0x3c948481	0.018129589
134	0xbc6d5408	-0.014485367
135	0xbb369520	-0.0027859882
136	0xbd6e1009	-0.05812076
137	0xbbc205f0	-0.005921118
138	0xbd196b4c	-0.037455842
139	0x3d5a9c54	0.053371742
140	0xbd83e3bf	-0.064399235
141	0xbdb239b3	-0.087024115
142	0x3cd8b742	0.026454572
143	0x3da9b890	0.08287156
144	0xbddc0ae0	-0.10744262
145	0xbdcf2330	-0.10114133
146	0xbd0e6b0e	-0.034770064
147	0x3d1d34f8	0.038380593
148	0xbd565382	-0.052325733
149	0xbc82f509	-0.015985982
150	0x3c43cbb1	0.011950419
151	0x3d652a8f	0.05594879
152	0xbc41636b	-0.011803488
153	0x3cc3d9a0	0.023907483
154	0xbd4cea69	-0.05002824
155	0x3d79b641	0.060964826
156	0xbde2601c	-0.11053488
157	0xbd2cf917	-0.042229738
158	0xbd992253	-0.0747725
159	0x3c81ea3b	0.01585876
160	0x3d18dae2	0.037318118
161	0x3db043ae	0.08606659
162	0x3d81194c	0.06303653
163	0xbd8ad4aa	-0.06778844
164	0xbd96255a	-0.07331343
165	0xbd45932a	-0.04823605
166	0xbd033ee0	-0.032042384
167	0x3d98235e	0.07428621
168	0xbd64e765	-0.055884738
169	0xbbcea503	-0.006306292
170	0x3cca7f34	0.024718858
171	0x3d5b1a64	0.053491965
172	0xba98ab40	-0.0011647716
173	0xbd99466f	-0.07484137
174	0x3cfb8fb8	0.030708179
175	0x3bf0ad30	0.0073448643
176	0x3d0078e4	0.03136529
177	0x3bc04b45	0.005868348
178	0xbd2e9cc1	-0.04262996
179	0xbd3f2713	-0.046668123
180	0xbd236c78	-0.039898366
181	0xbdc482b0	-0.09595239
182	0x3d50e6b0	0.05100125
183	0xbd17db13	-0.03707416
184	0xbb892f7f	-0.00418657
185	0xbdd26fb0	-0.10275209
186	0x3cc64db4	0.024206974
187	0x3d3b8fd0	0.045791447
188	0xbde61cfd	-0.11235998
189	0xbd3af408	-0.045642883
190	0xb89f4531	-7.594599e-05
191	0xbdb25939	-0.08708424
192	0x3c86e484	0.016466387
193	0xbcab1cfe	-0.020887848
194	0x3d7e26f1	0.062048856
195	0x3d330317	0.04370412
196	0xbd228d69	-0.03968564
197	0xbdb29e1f	-0.087215655
198	0x3d25861b	0.040411096
199	0x3c5e2d40	0.013560593
200	0x3c1e2800	0.009653091
201	0x3b33793a	0.002738549
202	0xbccf39f8	-0.025296196
203	0xbd97facc	-0.074208826
204	0xbcdfae58	-0.027304813
205	0xbd8d4f74	-0.0689992
206	0xbcb06e8c	-0.021537088
207	0xbd9dff79	-0.07714743
208	0x3d04adab	0.032392185
209	0xbde1217e	-0.10992716
210	0xbd0a82a2	-0.033815987
211	0xbda13ebf	-0.07873296
212	0xbc335030	-0.010944411
213	0xbdacd72e	-0.0843948
214	0xbd01c154	-0.031678513
215	0xbc73c59f	-0.0148786595
216	0x3c27b9d9	0.010237181
217	0xbdb2144d	-0.08695278
218	0xbdd4ca83	-0.103901885
219	0xbd460b6b	-0.048350733
220	0x3d10cdde	0.03535258
221	0x3c5b1188	0.013370879
222	0xbb53947a	-0.0032284544
223	0xbd8908e7	-0.06691151
224	0xbd2f713a	-0.04283259
225	0xbc60a020	-0.013710052
226	0x3d630e1a	0.05543337
227	0xbda31758	-0.07963437
228	0xbd450d18	-0.04810819
229	0x3c86dbbe	0.016462203
230	0x3da6ec2e	0.081505165
231	0x3d21aa4c	0.03946905
232	0xbd208aba	-0.0391948
233	0x3d6939ba	0.056939818
234	0x3d32aba4	0.04362072
235	0x3d8b06c2	0.06788398
236	0xbd17fc62	-0.037105925
237	0x3d9b256c	0.07575497
238	0xbc83bc02	-0.01608086
239	0x3ce3ace8	0.027792409
240	0x3d289626	0.041158818
241	0xbd8f54b3	-0.06998577
242	0x3e472322	0.19446996
243	0xbd9ff5d9	-0.078105636
244	0xbde61946	-0.11235289
245	0xbd310205	-0.043214817
246	0x3d805c07	0.06267553
247	0xbdf02f33	-0.117277525
248	0xbd59abda	-0.053142406
249	0x3d8262ee	0.063665256
250	0xbdb85ff5	-0.09002677
251	0xbd85a072	-0.06524743
252	0xbd0a8cea	-0.033825792
253	0xbcda8bc6	-0.026677977
254	0xbd950a1e	-0.0727732
255	0x3d20e4db	0.039280754

fc.f6.bias f4 [84]
0	0x3bb621f4	0.0055582467
1	0xbdc29079	-0.09500212
2	0x3dac5591	0.08414758
3	0x3b434b0c	0.002979937
4	0xbd025e55	-0.031828243
5	0x3d565b75	0.052333314
6	0xbe0cf31b	-0.13764612
7	0xbc2a13e1	-0.010380716
8	0x3cf10584	0.029421575
9	0xb99194bf	-0.0002776738
10	0xbdd8714d	-0.105684854
11	0xbd8c1104	-0.06839183
12	0x3d22510c	0.039628074
13	0xbdfa02cf	-0.12207567
14	0xbd3a208a	-0.045441188
15	0x3d52c34f	0.051455792
16	0xbcb93cd1	-0.022612007
17	0x3dc1c21e	0.09460853
18	0x3d95d25b	0.07315513
19	0x3d8e3f03	0.06945612
20	0xbd6fbef9	-0.058531735
21	0xbdb29fa3	-0.087218545
22	0x3d7c44db	0.061589103
23	0xbc9af80a	-0.018917102
24	0xbd725760	-0.05916536
25	0xbc8e1c52	-0.017347489
26	0x3dcf9c26	0.10137205
27	0xbd954978	-0.07289404
28	0xbdd12869	-0.10212786
29	0xbd75844e	-0.05994063
30	0x3d913afc	0.070913285
31	0xbddae699	-0.10688514
32	0x3bd368f1	0.006451719
33	0xbdea1bc3	-0.114310764
34	0x3dc1b1ff	0.09457778
35	0x3e09dadb	0.13462393
36	0x3cc27cc1	0.023741128
37	0xbde03ccf	-0.10949098
38	0x3e255e3b	0.16149227
39	0x3dd37314	0.10324684
40	0xbc898761	-0.016788187
41	0x3b0120de	0.0019703428
42	0x3e1101fb	0.14160912
43	0x3b12a03e	0.0022373344
44	0x3d97fa7a	0.074208215
45	0x3cf025ed	0.02931496
46	0xbdc76a22	-0.0973704
47	0xbc1d71ab	-0.00960962
48	0x3def327c	0.11679551
49	0x3ded63fa	0.11591335
50	0x3dfd3f86	0.12365632
51	0x3d4b4bd0	0.049632847
52	0x3dc3f07b	0.095673524
53	0x3e12869e	0.14309165
54	0xbdacb408	-0.08432776
55	0x3cbee943	0.023304587
56	0xbaaf9a67	-0.0013397456
57	0x3dbb2b0d	0.09139071
58	0x3dfc78a3	0.12327697
59	0x3d8c1b77	0.06841176
60	0x3db8cd13	0.0902349
61	0x3db2fb45	0.08739332
62	0xbd9726fa	-0.07380481
63	0x3cf02d30	0.029318422
64	0x3b63b800	0.0034747124
65	0xbabd8dec	-0.0014461852
66	0x3dd47c08	0.103752196
67	0xbd0d4c77	-0.03449675
68	0xbdbd6138	-0.09247059
69	0xbd8cb66b	-0.06870731
70	0x3dc67045	0.096893825
71	0xbada56a3	-0.00166579
72	0x3dbfba0f	0.0936166
73	0xbd2540ed	-0.04034512
74	0x3d92a149	0.07159669
75	0x3c78b3df	0.015179603
76	0xbc3a0388	-0.011353381
77	0x3d2bdf13	0.041960787
78	0xbe0920eb	-0.13391463
79	0x3d953ec4	0.07287362
80	0x3e215feb	0.15759246
81	0x3df85040	0.121246815
82	0x3d3b84e1	0.04578102
83	0xbda24c9a	-0.07924767

fc.f7.weight f4 [10, 84]
0	0xbe5b40d1	-0.21411444
1	0x3d566d67	0.052350428
2	0x3df07fd2	0.1174313
3	0xbd97b155	-0.0740687
4	0xbc7f2e99	-0.015575075
5	0xbd89f429	-0.06736023
6	0xbe33cf1a	-0.17559472
7	0xbc761016	-0.015018484
8	0xbe0f97df	-0.14022778
9	0x3e456761	0.19277717
10	0xbd19d88f	-0.037560042
11	0xbe293984	-0.16525847
12	0x3d55b153	0.052171063
13	0x3cb06117	0.021530671
14	0x3d9b56a0	0.07584882
15	0x3dbea467	0.09308701
16	0x3d9e39da	0.07725878
17	0x3e4032c0	0.1876936
18	0x3df8a051	0.12139953
19	0xbd32cf16	-0.043654524
20	0xbd9944f5	-0.07483856
21	0xbe0a086c	-0.13479775
22	0x3de9e905	0.11421398
23	0xbe2193c5	-0.15779026
24	0xbe1537c3	-0.14572053
25	0xbb4b1728	-0.0030989144
26	0xbde5b9f4	-0.11217108
27	0x3bc61038	0.006044414
28	0x3ca57dcd	0.020201588
29	0xbe1e16f5	-0.15438445
30	0xbe0ca538	-0.13734901
31	0xbe2ebd52	-0.17064407
32	0x3d67e068	0.056610495
33	0x3b84e941	0.0040561263
34	0x3d9fdd5a	0.07805891
35	0xbdf87875	-0.1213235
36	0xbe343095	-0.17596658
37	0x3d86e8b5	0.06587354
38	0x3c48d632	0.012258099
39	0xbd76868f	-0.06018692
40	0x3dfa6e3b	0.12228056
41	0xbc2952ad	-0.010334653
42	0xbdc79661	-0.097454794
43	0x3e54c64d	0.2077877
44	0xbc303842	-0.0107556
45	0xbe2ac1f4	-0.1667555
46	0xbd7c9b7b	-0.061671715
47	0x3bb204c1	0.0054326956
48	0x3d712924	0.058877125
49	0xb986a3ed	-0.00025680606
50	0x3b05901a	0.002038008
51	0x3e193f92	0.14965656
52	0xbe47e190	-0.19519639
53	0x3e1ec4fc	0.15504831
54	0x3d2848cc	0.04108505
55	0xbe819632	-0.25309902
56	0x3d45bb68	0.048274428
57	0x3cfbbea4	0.030730553
58	0xbe03cfc8	-0.12872231
59	0xbe59ce44	-0.2127009
60	0x3d668c25	0.056285996
61	0x3d14ab6a	0.036296286
62	0x3ddc153a	0.10746236
63	0xbd6847ec	-0.056709215
64	0xbde09fc3	-0.10967972
65	0xbda807c4	-0.08204606
66	0x3e00478d	0.12527294
67	0x3e0f553d	0.1399736
68	0x3de22e6e	0.11044012
69	0xbd81e9c7	-0.063434176
70	0xbe3d5bd1	-0.18492056
71	0xbe32a436	-0.17445454
72	0xbe4ff144	-0.2030688
73	0x3dedda7c	0.11613938
74	0x3dbaeeac	0.09127554
75	0x3cea3344	0.028588898
76	0x3e64428f	0.22291015
77	0xbc14bfa3	-0.009078893
78	0xbd210f7b	-0.039321404
79	0x3df0e11d	0.11761687
80	0xbd8b1ca9	-0.06792576
81	0xbe8f2ac6	-0.2796232
82	0xbe827539	-0.2548006
83	0x3d84f5f1	0.06492222
84	0x3bc3403e	0.005958586
85	0xbd86b79e	-0.06577991
86	0xbd8e4129	-0.06946022
87	0x3cfd6c02	0.030935291
88	0x3db1263e	0.08649872
89	0xbd89ce34	-0.06728783
90	0x3cde7573	0.027155614
91	0x3b95ea00	0.004575014
92	0x3dd31fb7	0.103087835
93	0xbd8ebeec	-0.06970009
94	0xbd0828e8	-0.033242136
95	0x3d91825e	0.07104944
96	0x3dbcab14	0.09212318
97	0xbe317857	-0.17331062
98	0x3e94000d	0.2890629
99	0x3dec02a5	0.11523942
100	0xbdab043a	-0.083504155
101	0xbd42bc77	-0.047543015
102	0xbdc4ca3d	-0.096088864
103	0xbdc23446	-0.094826266
104	0x3e196634	0.14980394
105	0x3ce6c685	0.028170833
106	0xbdb3e25a	-0.087834075
107	0x3dd2d4f1	0.102945216
108	0x3c4d2f8c	0.012523543
109	0xbe1099ec	-0.14121217
110	0xbd97994a	-0.074022844
111	0x3db2e981	0.087359436
112	0x3d14b67a	0.036306836
113	0xbddeadf8	-0.10873026
114	0xbe9324e4	-0.28739083
115	0xbdd01247	-0.10159736
116	0xbdf332ca	-0.118749216
117	0x3d4bd0f3	0.049759816
118	0x3d53d477	0.051716294
119	0x3cda63f4	0.02665899
120	0x3d2de9ac	0.042459175
121	0x3dd81100	0.105501175
122	0x3e39190e	0.18075964
123	0xbd06a25f	-0.032869693
124	0xbe76d1ad	-0.24103422
125	0xbd644a38	-0.055734843
126	0xbdf2f46a	-0.118630245
127	0x3e23eb87	0.16007815
128	0x3d358386	0.044314884
129	0xbe2ed243	-0.17072396
130	0x3da47796	0.08030622
131	0xbc4eb579	-0.012616509
132	0xbe4807d6	-0.19534239
133	0x3d214098	0.039368242
134	0xbe324e56	-0.17412695
135	0x3e36ce19	0.17852058
136	0x3e4c305c	0.19940323
137	0xbe34b707	-0.17647944
138	0xbe2263e1	-0.15858413
139	0x3c1ca69a	0.009561205
140	0x3e59fdf8	0.21288288
141	0xbdda4421	-0.10657526
142	0x3e072b05	0.13200004
143	0x3de7b190	0.11313164
144	0x3dc5d149	0.096590586
145	0xbd97ee3a	-0.07418485
146	0x3e8f02a3	0.279317
147	0x3d34408c	0.04400687
148	0x3d9ceabf	0.07661962
149	0xbe477fb4	-0.19482309
150	0xbe575b6b	-0.21030967
151	0xbda2504f	-0.07925474
152	0xbda11fc1	-0.07867385
153	0x3d7f22fd	0.062289227
154	0x3db7ee8b	0.08981045
155	0xbe0f0ab4	-0.13968927
156	0xbdc4f780	-0.096175194
157	0xbe3f7550	-0.18697095
158	0xbc6682c4	-0.014069263
159	0x3c86cb16	0.01645426
160	0xbe2605f2	-0.16213205
161	0xbdd7e17c	-0.105410546
162	0x3d135496	0.03596934
163	0x3e06903c	0.13140959
164	0x3d581f91	0.05276448
165	0x3ba4c339	0.005028155
166	0x3d127589	0.03575662
167	0x3cbc08ed	0.022953475
168	0xbd524997	-0.051339712
169	0xbdd5c858	-0.10438603
170	0x3e2325e0	0.15932417
171	0x3b6b5b1e	0.0035912464
172	0x3d38c552	0.045110054
173	0xbd5c836e	-0.05383628
174	0xbd21cdf6	-0.03950306
175	0x3dca391a	0.098741725
176	0xbe1ba032	-0.15197828
177	0x3d8f4a93	0.06996646
178	0xbd4f6d04	-0.050641075
179	0x3e13cdd3	0.14433984
180	0xbdb135e3	-0.08652856
181	0xbdad3d97	-0.08459013
182	0x3e0ef419	0.13960303
183	0xbdda27fd	-0.106521584
184	0xbd8397e4	-0.06425455
185	0xbe12224e	-0.14270899
186	0xbdf1932c	-0.11795649
187	0x3d7de691	0.061987463
188	0xbd35ecd2	-0.044415303
189	0xbdb43d04	-0.088007
190	0x3e2efde3	0.17089038
191	0x3e03b604	0.12862402
192	0xbc854f6e	-0.016273227
193	0x3ce404cb	0.027834317
194	0xbd6183bd	-0.055057276
195	0x3d34a815	0.044105608
196	0xbda1046c	-0.078621715
197	0x3e3a0c44	0.18168741
198	0x3c155078	0.0091134235
199	0x3e7b0317	0.24512897
200	0x3c7e6f39	0.015529447
201	0x3d3bb0ab	0.04582278
202	0xbd8c2724	-0.06843403
203	0x3df39c52	0.1189505
204	0xbde9d0d2	-0.114167824
205	0x3c855979	0.016278015
206	0xbe423486	-0.18965349
207	0x3e1a9f99	0.15099944
208	0x3dcb6754	0.09931818
209	0x3e26ad62	0.16277078
210	0x3b728e22	0.0037010987
211	0xbd25b593	-0.040456366
212	0xbca2f389	-0.019891517
213	0x3bc58940	0.0060283244
214	0xbb013deb	-0.0019720744
215	0x3c4d6072	0.012535201
216	0xbe11cb63	-0.14237742
217	0xbc26af31	-0.010173605
218	0xbd67c19e	-0.056581132
219	0xbe9f12bd	-0.31068984
220	0xbd886e23	-0.06661632
221	0xbbd78c2f	-0.0065779905
222	0xbe318c4a	-0.17338672
223	0xbd4d0042	-0.050049074
224	0xbd4114e9	-0.047139082
225	0x3e0a3c2a	0.13499513
226	0x3e14ccc7	0.14531241
227	0x3dbc0447	0.09180503
228	0x3c950ad9	0.01819365
229	0x3df22136	0.11822741
230	0x3c5ab988	0.013349898
231	0x3d77d142	0.0605023
232	0x3d3662b4	0.044527724
233	0xbd4a967e	-0.049459927
234	0xbd05314d	-0.03251772
235	0x3e0a0697	0.13479076
236	0x3d8f6d01	0.07003213
237	0xbc7b9932	-0.015356349
238	0x3d9434c6	0.07236628
239	0x3c9ee398	0.019395635
240	0xbdeb7cad	-0.114983894
241	0x3cfe6152	0.031052265
242	0x3dbbb22c	0.09164843
243	0xbbe2b678	-0.0069187246
244	0xbe006332	-0.1253784
245	0xbe55efbf	-0.20892237
246	0x3d6cdc04	0.05782701
247	0xbd80215f	-0.06256365
248	0x3d5d6d72	0.054059453
249	0xbdccb7f7	-0.09996026
250	0xbc833110	-0.016014606
251	0x3d7be7c3	0.061500322
252	0xbcf6a2a9	-0.03010686
253	0xbd9d42a3	-0.076787256
254	0xbdf1f107	-0.118135504
255	0x3da05e54	0.07830492

fc.f7.bias f4 [10]
0	0xbd342d10	-0.043988287
1	0xbddbdfd0	-0.10736048
2	0x3c9bff2c	0.019042574
3	0xbd63253c	-0.05545543
4	0x3c84f419	0.016229676
5	0xbd93e7e3	-0.07221963
6	0xbdcfb67d	-0.10142229
7	0x3d84c7ad	0.06483398
8	0xbd1759a0	-0.036950707
9	0x3dc58e4c	0.096462816
